…
case, `do_reduce_labels` should be set to\n`False`, as loss should also be computed for the background class.\n- As most models, SegFormer comes in different sizes, the details of which can be found in the table below\n(taken from Table 7 of the [original paper](https://arxiv.org/abs/2105.15203)).\n\n| **Model variant** | **Depths**    | **Hidden sizes**    | **Decoder hidden size** | **Params (M)** | **ImageNet-1k Top 1** |\n| :---------------: | ------------- | ------------------- | :---------------------: | :------------: | :-------------------: |",
  "| MiT-b0            | [2, 2, 2, 2]  | [32, 64, 160, 256]  | 256                     | 3.7            | 70.5                  |\n| MiT-b1            | [2, 2, 2, 2]  | [64, 128, 320, 512] | 256                     | 14.0           | 78.7                  |\n| MiT-b2            | [3, 4, 6, 3]  | [64, 128, 320, 512] | 768                     | 25.4           | 81.6                  |\n| MiT-b3            | [3, 4, 18, 3] | [64, 128, 320, 512] | 768                     | 45.2           | 83.1                  |\n| MiT-b4            | [3, 8, 27, 3] | [64, 128, 320, 512] | 768                     | 62.6           | 83.6                  |\n| MiT-b5            | [3, 6, 40, 3] | [64, 128, 320, 512] | 768                     | 82.0           | 83.8                  |\n\nNote that MiT in the above table refers to the Mix Transformer encoder backbone introduced in SegFormer. For\nSegFormer's results on the segmentation datasets like ADE20k, refer to the [paper](https://arxiv.org/abs/2105.15203).\n\n## Resources\n\nA list of official Hugging Face and community (indicated by 🌎) resources to help you get started with SegFormer.\n\n<PipelineTag pipeline=\"image-classification\"/>",
…
whatever layer you like.\n- Alternatively, one can further fine-tune the entire model on a downstream dataset, similar to BERT. For this, you can\nuse [`ImageGPTForImageClassification`].",
  "- ImageGPT comes in different sizes: there's ImageGPT-small, ImageGPT-medium and ImageGPT-large. The authors did also\ntrain an XL variant, which they didn't release. The differences in size are summarized in the following table:\n\n| **Model variant** | **Depths** | **Hidden sizes** | **Decoder hidden size** | **Params (M)** | **ImageNet-1k Top 1** |\n|---|---|---|---|---|---|\n| MiT-b0 | [2, 2, 2, 2] | [32, 64, 160, 256] | 256 | 3.7 | 70.5 |\n| MiT-b1 | [2, 2, 2, 2] | [64, 128, 320, 512] | 256 | 14.0 | 78.7 |\n| MiT-b2 | [3, 4, 6, 3] | [64, 128, 320, 512] | 768 | 25.4 | 81.6 |\n| MiT-b3 | [3, 4, 18, 3] | [64, 128, 320, 512] | 768 | 45.2 | 83.1 |\n| MiT-b4 | [3, 8, 27, 3] | [64, 128, 320, 512] | 768 | 62.6 | 83.6 |\n| MiT-b5 | [3, 6, 40, 3] | [64, 128, 320, 512] | 768 | 82.0 | 83.8 |\n\n## Resources\n\nA list of official Hugging Face and community (indicated by 🌎) resources to help you get started with ImageGPT.\n\n<PipelineTag pipeline=\"image-classification\"/>\n\n- Demo notebooks for ImageGPT can be found [here](https://github.com/NielsRogge/Transformers-Tutorials/tree/master/ImageGPT).",
  "- [`ImageGPTForImageClassification`] is supported by this [example
…
nstead of Attention, a simple Average Pooling layer is present. All checkpoints of the model can be found on the [hub](https://huggingface.co/models?other=poolformer).\n- One can use [`PoolFormerImageProcessor`] to prepare images for the model.\n- As most models, PoolFormer comes in different sizes, the details of which can be found in the table below.\n\n| **Model variant** | **Depths**    | **Hidden sizes**    | **Params (M)** | **ImageNet-1k Top 1** |\n| :---------------: | ------------- | ------------------- | :------------: | :-------------------: |\n| s12               | [2, 2, 6, 2]  | [64, 128, 320, 512] | 12             | 77.2                  |",
  "| s24               | [4, 4, 12, 4] | [64, 128, 320, 512] | 21             | 80.3                  |\n| s36               | [6, 6, 18, 6] | [64, 128, 320, 512] | 31             | 81.4                  |\n| m36               | [6, 6, 18, 6] | [96, 192, 384, 768] | 56             | 82.1                  |\n| m48               | [8, 8, 24, 8] | [96, 192, 384, 768] | 73             | 82.5                  |\n\n## Resources\n\nA list of official Hugging Face and community (indicated by 🌎) resources to help you get started with PoolFormer.\n\n<PipelineTag pipeline=\"image-classification\"/>\n\n- [`PoolFormerForImageClassification`] is supported by this [example script](https://github.com/huggingface/transformers/tree/main/examples/pytorch/image-classification) and
…
